anul3/nlp/lab4/model.pt (torch, 598735 bytes, 8 tensors)

linear1.weight f8 [128, 500]
000000 92 ae 45 c3 a8 d3 b9 3f ff c6 08 8f 39 96 ad bf
       0.10088591353786061 -0.05778674956344609
000010 c0 ee 43 77 1e 95 94 3f 46 a6 6f eb 02 7e 79 3f
       0.020100093869571678 0.006223689465494403
000020 3a bc 2a f6 d6 e5 b2 bf 9d 99 40 12 2a 68 bb bf
       -0.07381957540450027 -0.10705817170728556
000030 99 70 b6 d7 48 e4 b5 bf c8 55 53 de f4 2c 8c 3f
       -0.08551459566519028 0.013757622752033863
000040 52 b2 2a ae 03 9e ac 3f 15 a3 da c9 88 3d 7d bf
       0.05589305401858681 -0.00713876183514441
000050 e9 3f 53 72 86 e1 a0 3f 51 9f ef 4f b4 d2 b9 3f
       0.03297062058993545 0.10087134315074066
000060 0d d3 25 70 61 2d 79 bf b3 fe da 93 ca d7 b0 3f
       -0.006146793954361807 0.06579271421196146
000070 2c 64 44 a9 60 50 bd 3f 99 dd 88 1d 59 e4 9f bf
       0.11450771458147874 -0.031144516399050557
000080 53 aa 23 fa 48 53 c4 bf 8c 39 70 de 88 c8 98 bf
       -0.15879165853341934 -0.02420247895866505
000090 0f 1b 7b 87 62 35 ba 3f ce cd 4a 5b 1e f6 b0 3f
       0.10237708861960136 0.06625547150434061
0000a0 75 22 22 72 8f b0 74 3f 6c bf 5f 65 92 41 b0 bf
       0.005051193557058843 -0.06350054717017678
0000b0 f3 fc 22 e8 c7 bb b0 3f 39 e1 0a 18 84 4b b7 bf
       0.0653653089275286 -0.0909960325906284
0000c0 88 5f 31 2e 6d 04 b0 3f dd 25 b5 05 36 e0 6a bf
       0.06256754281764476 -0.0032807402728038796
0000d0 aa b0 08 f2 fd e0 81 bf ff da 4a a6 c5 1c b3 bf
       -0.008729919384755942 -0.07465777692673824
0000e0 79 db 43 fb a8 7f a2 bf 18 38 61 26 23 eb b2 3f
       -0.036130219146733596 0.07390041052823937
0000f0 fe 0f 45 d9 e3 67 b4 3f f4 56 0a e3 dd 61 77 3f
       0.07971023611486314 0.005708567376719865
000100 a0 6e 79 e7 d9 1c ac bf 92 c7 0f 4a 82 ea 85 bf
       -0.05490761709799341 -0.010701196561033108
000110 88 fd 10 f4 6e b3 a6 bf 08 93 75 4f ee e9 95 bf
       -0.04433771828962124 -0.021400188064393283
000120 76 c5 bd 7d b8 66 71 bf ea 37 0a 04 c3 d4 b5 3f
       -0.004248352688465009 0.08527773712759737
000130 a0 b4 d9 62 87 04 78 3f 21 da d1 3e cc 4a b3 3f
       0.0058636940499187384 0.07536007436451843
000140 b4 89 45 13 64 42 bb 3f 85 5f 0c c1 21 b2 b1 bf
       0.10648179502962912 -0.0691243263539701
000150 d3 38 98 8e 81 d3 bc 3f 84 da 57 48 70 51 a1 3f
       0.11260232669176 0.033824452238993025
000160 10 e5 87 50 de df 89 3f 5d 7c 54 31 49 52 ba bf
       0.012634026367765588 -0.10281808332773452
000170 da 86 f6 86 f9 22 9f 3f 1c 62 2f 4d 0d 76 b8 3f
       0.030406855452048777 0.09555132994081145
000180 7c e5 48 56 73 6b b0 bf 8c 98 e5 8f 94 98 96 bf
       -0.06413956505357093 -0.02206642273213126
000190 34 e8 f4 be 5e a9 b1 3f b7 c4 11 86 55 ac 65 3f
       0.06899063264873534 0.0026456518540319512
0001a0 c6 ad 3e b6 ac ac 9a 3f 67 53 be d5 67 f5 78 3f
       0.026049326537458638 0.006093412022796985
0001b0 bb 9c 58 9a 48 87 a4 3f e9 b6 81 7f f7 96 b4 3f
       0.0400946319971864 0.08042857039410091
0001c0 27 4a df 7a 99 2d a3 bf 53 e2 3d 4e 90 8c 93 3f
       -0.03745727181344121 0.019090895438667776
0001d0 53 d1 65 c8 6d 1b c1 3f 1c b2 90 13 4a fc a0 3f
       0.13364956173939876 0.03317481507142281
0001e0 e3 6a 5f f1 07 4a c1 3f 7f f8 9c 4a 43 08 b2 3f
       0.13507174764421057 0.07043858119593159
0001f0 c4 9a c2 d2 c9 20 7e 3f 66 cf fe df de 1a ae 3f
       0.007355488178439177 0.058798756449873577
000200 e6 54 44 4f 51 9f ab 3f e7 a2 9d 40 86 2e b0 3f
       0.05394987194646621 0.06320990636380551
000210 0a f0 9d 62 f3 a3 ae bf 86 04 6c 17 cc 9d ab 3f
       -0.05984459475345723 0.05393827234184649
000220 c1 c8 c0 6d b5 b8 33 3f 34 bb 48 db 62 41 a4 3f
       0.00030092648899250277 0.03956135680015507
000230 9a c8 3f 5f d6 4e 78 bf 3f c3 07 b4 86 24 b3 3f
       -0.005934560194861183 0.07477609534522588
000240 f5 b6 2a 97 9c 73 9e 3f 3d e7 a4 7b 32 6d 98 3f
       0.029737898565762106 0.023854054257049773
000250 ce 4a a4 24 44 c0 7c bf 05 2d 97 92 57 71 b3 3f
       -0.007019296821698174 0.07594821289892557
000260 34 d5 8b b9 de 1e c0 bf 96 6b 97 26 4b 01 a0 bf
       -0.12594207820772285 -0.03125986906135052
000270 45 56 81 90 c7 6c a4 3f a4 f1 da 12 d3 c7 b5 3f
       0.03989242209415215 0.08508032999356502
000280 6c 5b 36 4d 52 77 97 3f 95 5b 5d 1f 21 47 a9 bf
       0.022916112864176538 -0.04937079913968671
000290 18 c8 0f e9 14 6d 9d bf a9 7e c1 de 98 2a a4 bf
       -0.02873642609115032 -0.03938749045550811
0002a0 aa 7d c3 ba b6 0f a6 bf 45 a6 a2 bf a5 9a 7a bf
       -0.04308863668279213 -0.0064951395562871704
0002b0 30 04 1b fc 6a 93 a2 bf ea 1e df 56 d0 de a5 3f
       -0.03628095939121356 0.04271555958217539
0002c0 63 9c e4 ba 27 95 bb bf 97 4f 1a e7 1c e4 87 3f
       -0.10774467766587885 0.011665559580514002
0002d0 12 3a b8 2d fe f6 bd bf 2c 5a 7c 38 de 32 63 3f
       -0.11705006233408025 0.002343591713621215
0002e0 8b 5a a3 3f 86 52 b3 bf 48 1b 7c 4c bf 4c b3 3f
       -0.07547797254242476 0.07538982026390528
0002f0 d2 83 f0 d6 e1 35 ba 3f 94 6f 6c f5 8c e4 b0 bf
       0.10238467690989175 -0.06598740569864808
000300 74 92 a2 2c 3c 37 a4 3f be ed 77 15 bc 70 c1 3f
       0.039483910034765396 0.13625289009347158
000310 1a 36 2a 03 93 33 a0 bf a5 c1 5d 37 bd 06 8b 3f
       -0.0316434804309262 0.01319644761289924
000320 ae eb bb 94 e8 52 a0 3f 62 c5 bf 26 ea 30 ad 3f
       0.03188254180528048 0.057013814191928316
000330 6d 1e 06 fc 35 00 8d 3f 93 09 37 b7 34 48 ad 3f
       0.014160558465632545 0.057191512456046166
000340 2e f3 4a 52 a7 57 a1 bf 9f cd 65 f7 5d 27 8a bf
       -0.03387186889219716 -0.012770399200895009
000350 33 13 be 41 e9 24 b0 bf 19 2e 8e 25 67 02 7d bf
       -0.0630632195953467 -0.007082369725036419
000360 13 8a 99 3b d2 00 9e bf 8f 86 a6 b8 e2 50 a1 bf
       -0.02930000771301351 -0.03382023338350592
000370 5c ca b3 d9 6b 63 c1 bf db b9 70 e3 75 1f c1 bf
       -0.13584659700389323 -0.13377259831891206
000380 20 4e 89 a9 61 e0 a6 3f 15 7a b3 6f 8e 63 84 3f
       0.04468064493690016 0.00995551374802254
000390 80 5b 1c 9d 44 2c 48 3f 6d 55 71 3c a7 a9 a7 bf
       0.0007376990344905993 -0.0462162267000775
0003a0 58 2f a6 fe af 2e c3 3f 96 d3 d4 2f ac 54 94 bf
       0.149862288799677 -0.01985425035418905
0003b0 4d 87 e2 8a 8e ab b1 bf 87 e9 98 5d 97 b7 b4 3f
       -0.06902399912590092 0.0809263804921213
0003c0 41 8b b2 52 ba 42 9d 3f 74 a8 55 0c d5 43 7f bf
       0.028574858949137697 -0.007633049220524869
0003d0 a6 30 31 e9 4f e8 9d 3f db 51 f9 f7 10 5d 8e 3f
       0.029206513030928825 0.01482594734913161
0003e0 0c 27 3b 86 a1 27 a3 bf 90 c8 fd 9c 07 62 80 3f
       -0.03741173518717575 0.007999476889129192
0003f0 b0 0f ec 38 bc cb 91 3f 6b d9 45 44 38 c3 b8 3f
       0.01737875077652945 0.09672881762330625
000400 9f 67 0a cf 68 59 94 bf 64 13 d7 52 24 15 8d bf
       -0.019872319828756365 -0.01420048120315593
000410 89 cb 77 7a da a6 34 bf 86 c3 40 85 8b 9c 52 3f
       -0.00031512102074698255 0.001135956049449245
000420 7a 4e 73 ab 26 02 98 3f d2 9d 4e 7b 19 b1 93 bf
       0.023445705618384306 -0.019230268622463083
000430 54 60 00 bd 81 f8 a4 3f 2c 75 7a 2c 3d 31 c3 bf
       0.04095845634600495 -0.1499401538066335
000440 79 48 d9 8e ac 78 b1 bf 4e 64 fa 17 d1 68 b0 bf
       -0.06824758994597059 -0.06409937701609289
000450 c3 a9 16 13 46 d4 94 bf 99 95 81 1a 7c 46 9c bf
       -0.020341010012694626 -0.027612628095445044
000460 be 08 2b 03 52 38 83 bf bc 24 b7 2a 81 bf a0 3f
       -0.009384766313250355 0.0327110638277843
000470 df 87 7d 33 9a df b6 bf fb b1 a2 fc b7 83 97 3f
       -0.08934940106476529 0.022963404459618513
000480 e5 6d 42 8d b9 48 9f 3f 63 14 74 4c ca 1e a6 bf
       0.03055086064033032 -0.04320366080541118
000490 12 6b 3b 6d b6 28 ba bf a0 42 a3 54 75 64 c2 3f
       -0.10218372504042986 0.14369074471189425
0004a0 3a d1 0f 7b 7f d9 b6 bf eb a7 ea 28 c9 df 70 bf
       -0.08925625566900389 -0.004119668751323839
0004b0 90 19 11 63 38 39 a2 3f 81 4c d3 97 7f 1e bb 3f
       0.035592805951227935 0.10593411881136384
0004c0 c8 95 d0 b1 92 51 a2 bf 4e 0d 9d 2f e8 76 93 bf
       -0.03577860279646533 -0.01900828161821027
0004d0 f3 ed 79 22 c5 79 a2 bf f3 06 10 50 f6 2f b2 bf
       -0.03608528180935968 -0.07104434446958034
0004e0 45 77 84 5b 57 1f 97 3f 08 27 18 72 04 75 7f bf
       0.02258049484327464 -0.00767995583147197
0004f0 94 b9 a8 a7 10 4a 87 3f d5 0e 04 df b2 fe 9d 3f
       0.011371736637639164 0.029291910993392307
000500 0c 83 cb ad 28 14 9e bf 6b cf c7 fb fa d4 a7 bf
       -0.02937377510795884 -0.046546786532330874
000510 b6 b7 06 d7 c1 b0 8f bf 50 74 4e bc eb e2 ba 3f
       -0.01547385632951746 0.10502503726316204
000520 fd 8e 1f 3e 76 6b a1 bf ee 9a e6 97 70 bb 9a 3f
       -0.03402299412098662 0.026105651160515934
000530 03 ae 8b 62 ca 4d b4 3f 76 68 fc 5e 19 c9 ac 3f
       0.07931198984049818 0.056221764416663086
000540 47 fd 26 72 1a 75 b5 3f b5 68 d1 cd 2f 24 91 3f
       0.08381810461923066 0.016739603936323195
000550 37 53 20 47 0a e3 a7 3f ec 50 9a c4 34 85 b0 3f
       0.04665405386200521 0.06453256416199665
000560 16 5b 5c 3e 5d 12 be bf 4f dc 8c 7b f5 83 b2 bf
       -0.11746771595458613 -0.07232603327143859
000570 25 c7 1e 43 9f 9b 7d 3f c7 11 75 66 01 6f c2 3f
       0.007228490941928266 0.14401261809156393
000580 3a 42 dd 94 d9 9d 70 bf 98 41 2b 70 4d ad b8 bf
       -0.004056787421931102 -0.0963943861818336
000590 ff 1b 7a 9a ff 82 76 bf 59 99 30 69 31 04 b2 bf
       -0.005496023608094979 -0.07037648027526212
0005a0 47 c7 0b 73 37 b4 aa bf 19 77 ff 02 36 ab c1 3f
       -0.05215619353647454 0.13803744455702185
0005b0 67 21 10 c4 8b a1 b3 3f 21 4c 7a e7 fb 79 be bf
       0.07668374573416302 -0.11904882813750862
0005c0 ee 25 ad 4f 7e 84 be 3f f6 bf 6c c0 06 12 ae bf
       0.11920918889258988 -0.05873128031669232
0005d0 be 1f 50 c0 a0 20 99 bf 6d 2d ff 25 c6 08 9b 3f
       -0.024538528192379998 0.02640065771974547
0005e0 80 bf dc 97 6c 63 80 3f 15 c0 e7 b9 74 ae a5 bf
       0.008002136597127452 -0.042346618360056855
0005f0 f3 3f c2 f3 68 a4 a2 3f 68 6c 8c dd 26 7d b7 3f
       0.03641059852191111 0.09175341519260061
000600 50 c7 d3 a3 61 09 a4 bf 78 c1 61 e2 20 05 bc bf
       -0.039134074448056055 -0.1094532540025791
000610 a9 b5 f9 e7 99 2c 53 3f ae a8 20 a3 9d ec ad 3f
       0.0011703017225060763 0.058445860064538876
000620 88 39 8d 86 63 ca 94 bf 9f c4 1c 11 13 51 81 bf
       -0.02030330189455179 -0.00845541854832482
000630 7c c4 ba 4a 4e d5 b0 3f 59 94 54 04 cf 09 96 bf
       0.06575478863193668 -0.021521792067819543
000640 a9 fb 1a 3d b4 f6 a6 bf b6 63 0f 54 03 e6 b0 3f
       -0.044850952586322386 0.06600971987008006
000650 7e 07 e4 0a 46 3c a6 bf aa 25 c9 90 c0 94 96 3f
       -0.04342860110229106 0.02205181964590045
000660 e7 58 f7 0d ce 6a 8a bf c4 06 26 ab 3d b4 ab 3f
       -0.012899026681151017 0.0541095038816031
000670 f7 a1 d6 93 a8 03 a7 bf 72 88 ab 1c 95 1d 85 3f
       -0.04494978718441083 0.0103103303312688
000680 d4 6e eb 7e 20 1c ab bf 6b b2 41 53 2d 11 83 3f
       -0.052948966496584454 0.00931010637597148
000690 2f 7a bc 51 3c 49 bd bf 02 1b 1d b4 7f 11 b8 3f
       -0.11439873691095025 0.09401701113993613
0006a0 b6 08 8a 74 82 e7 a3 bf 13 9d f1 fb d1 1d 8c 3f
       -0.03887565300557709 0.013728752614226047
0006b0 23 42 2c 93 14 da 67 3f 90 87 d7 7a ae 24 a6 bf
       0.002911606011714933 -0.04324860810790121
0006c0 61 2d 78 85 e0 87 9b 3f 0f b2 35 2f c2 09 bd 3f
       0.026885517259910844 0.11343015339452499
0006d0 68 1b 6e de 57 4b b2 3f 58 3b be 0d 6d e9 bd bf
       0.07146214657232763 -0.11684304795765621
0006e0 20 86 e6 73 14 73 af 3f f1 b7 86 62 2c 29 b0 bf
       0.06142486491013366 -0.06312825589586148
0006f0 81 e3 85 47 03 81 95 3f b5 4f 33 91 ea 80 83 bf
       0.020999957313935894 -0.009523232036748522
000700 04 07 d8 61 b2 3a a1 3f 9a 32 a4 6e e8 a9 30 bf
       0.03365094608672162 -0.0002542679273041332
000710 22 80 18 8d 41 e0 5a 3f a3 f9 91 3b 5a 55 c0 bf
       0.0016403808734892851 -0.12760475071622776
000720 08 93 44 2d fb 95 a0 3f f3 29 fb e9 0d 22 b3 bf
       0.032394265437949044 -0.07473837816647926
000730 8d 10 cb ca bd eb a3 bf 33 55 63 e7 9f b3 b5 bf
       -0.038907938962013146 -0.08477210425492814
000740 b2 f3 90 e2 50 fb 69 3f 9e 7a 8a a7 9f ae 96 3f
       0.0031715945993071254 0.022150511361014417
000750 05 43 61 bb f8 c8 ba bf 3d 7e e9 19 f5 b2 a7 3f
       -0.10462908339219375 0.04628721181211091
000760 93 c0 13 4f 6c 8d cd 3f b9 09 0a ff aa 2a b1 3f
       0.2308783899420673 0.06705731131118044
000770 55 a4 fe 6d 70 5d 62 bf 7b a0 30 f6 38 4f b0 bf
       -0.002241820897286343 -0.06370883951660915
000780 11 6d 66 ff c1 88 97 3f 83 4c e3 2e 64 76 be bf
       0.02298262711847793 -0.11899400849078927
000790 e6 fa 06 f4 e3 60 b1 bf 02 ca 70 1c 84 9b 8a 3f
       -0.0678846808213894 0.01299193584245462
0007a0 a4 6d ae c0 13 76 a9 3f 40 3a 6c 95 7f 8c 9e bf
       0.04972898222987546 -0.029832833762208688
0007b0 30 2f 6d 60 35 0f aa 3f bf 82 0a 37 34 3c bc 3f
       0.050897281666577476 0.11029363960052317
0007c0 d9 ac 2d b8 6c 27 8a bf c2 bc 89 25 21 c0 ad bf
       -0.012770509119681627 -0.05810645659664139
0007d0 45 87 ad 50 90 4a a2 3f 2c 16 1f 7c 7d 5d 9d bf
       0.03572512612187365 -0.028676949215670586
0007e0 e1 99 c4 12 21 24 93 3f 44 08 0b 0e 7b 14 b0 bf
       0.018692509432321706 -0.06281251042222019
0007f0 91 37 98 2b 98 76 cb bf 4d cf 72 3d 7d b7 ad bf
       -0.21455671433107829 -0.05804053664306128

linear1.bias f8 [128]
000000 27 b3 d9 f2 6b f7 d5 bf 98 4e 99 16 d8 c4 d0 bf
       -0.34322642055376423 -0.2620144100849102
000010 5b c2 88 ec 28 50 d2 bf 55 4b d1 e2 02 8d d1 bf
       -0.28614256953281875 -0.27423164510871817
000020 5c 4b a1 9a 59 36 d3 bf f9 02 c2 84 c5 c4 cf bf
       -0.30019226170150204 -0.2481924913627365
000030 99 d8 2f b6 72 e2 d7 bf 2e d6 e8 1f 73 a6 d0 bf
       -0.3731962947052892 -0.26015928379215125
000040 70 08 e3 42 e7 ef d8 bf 35 cf 93 94 cc ac d1 bf
       -0.3896425393287535 -0.27617182263860524
000050 51 c4 05 ff cc 23 d3 bf d6 7a 24 19 70 ee c9 bf
       -0.29906010536712296 -0.2025890467420683
000060 41 5e 3c c2 71 56 d5 bf 8a 38 d3 02 45 04 ba bf
       -0.3334011456331361 -0.10162764853450504
000070 06 be 61 86 81 52 c9 bf 7c 10 be 93 58 1e c5 bf
       -0.19783038198100672 -0.16498858655916482
000080 69 39 55 68 3b 7d d4 bf c7 ef d5 ae a0 79 d4 bf
       -0.3201435583950088 -0.31992356370733116
000090 58 03 6e 9d 22 12 d2 bf b9 39 da ba 0f 16 cc bf
       -0.28235688566205885 -0.21942326186804254
0000a0 9a e5 3f e8 af 0c cc bf 91 02 4a f0 94 c4 d0 bf
       -0.2191371807128178 -0.26199840036137184
0000b0 4a 5a 92 2b 1f a7 cb bf e6 6e b3 1c ef 12 d1 bf
       -0.21603765132450042 -0.26678064158271153
0000c0 f8 68 6b 79 87 0d ca bf 1a b5 ab 9e 95 ea d0 bf
       -0.20353787831010783 -0.2643178987044209
0000d0 03 af ad a7 f4 44 d5 bf 1f d5 a9 3b d7 30 cf bf
       -0.33233372092102814 -0.2436780015301929
0000e0 51 c2 4b 46 1d d1 d1 bf 2c fb 1e b0 a0 ef d1 bf
       -0.278388327263234 -0.2802507133418881
0000f0 83 a9 b2 19 91 fb d0 bf 57 a6 bf 73 ce 44 d0 bf
       -0.2653544188457532 -0.2541996126516088
000100 8e 43 a6 db 6d 46 d0 bf de 58 1a 31 68 68 d3 bf
       -0.2542986531271304 -0.30324749751288305
000110 8d c0 fd f2 48 15 d6 bf b2 f9 9f e5 61 a4 ca bf
       -0.3450491307221533 -0.20814155304101473
000120 20 90 91 57 74 ca d0 bf 19 78 13 6d 97 da d1 bf
       -0.26235683967229484 -0.27896676685293326
000130 ce 07 f1 4c 6c 7f d3 bf d9 35 22 19 27 65 c7 bf
       -0.30465228570767244 -0.1827744362566779
000140 10 00 f1 43 a8 2b cc bf c1 e3 88 1c e0 4b d6 bf
       -0.22008231465770267 -0.34838106905550253
000150 4f 70 be 0d ed f5 d8 bf c2 bf c1 2f e3 2c d5 bf
       -0.3900101312845025 -0.330864712369472
000160 e9 7d a0 f2 43 7d d4 bf 71 88 f6 55 3e 3b ca bf
       -0.32014559453997876 -0.20493296811497744
000170 ad 24 42 42 0d 28 d4 bf 17 9a 82 53 58 96 cc bf
       -0.31494456739944604 -0.2233381660236808
000180 2c 3f a0 e6 dc 96 cf bf 1a ba 1c 87 d7 63 cb bf
       -0.24679147015603442 -0.21398443314815624
000190 e5 77 68 06 1d 87 d4 bf 7a 10 22 db 67 4d d1 bf
       -0.320746666200533 -0.2703494682284667
0001a0 f6 3c 5d 6c d7 2f d3 bf 80 2a 45 57 18 d5 d3 bf
       -0.29979501326029323 -0.30988129160383693
0001b0 5a c0 6d a0 c3 38 d6 bf ff 78 90 73 fc 7b d3 bf
       -0.3472146097838099 -0.3044425133283681
0001c0 d5 18 d2 88 00 26 d4 bf fb 45 f6 1a e9 7f d1 bf
       -0.3148194633616986 -0.2734320414830049
0001d0 ca f2 26 8b 9d 57 d0 bf 8f a4 7e ef e3 7f d1 bf
       -0.25534761990620025 -0.27343080890802524
0001e0 9b 94 95 97 98 84 d4 bf 47 c2 e4 fa b2 55 d2 bf
       -0.32059302142290286 -0.28648066045119375
0001f0 fb 2e 7f b5 19 1a d2 bf 1a 6d 0b bb 55 2d d0 bf
       -0.2828430435590545 -0.2527670218093633
000200 4b 06 8d 37 95 e0 d0 bf 55 ad e8 ec bd 84 cb bf
       -0.2637074511040722 -0.21498846118752604
000210 15 9f 63 a8 ac 69 ca bf ec 07 ae 59 73 c4 d5 bf
       -0.2063499281132343 -0.3401153922824267
000220 69 5c 25 c9 3a 90 cc bf 53 a5 a8 9f bd 91 d1 bf
       -0.22315153905467192 -0.2745203074615194
000230 2b be 29 80 29 8c ca bf b4 d4 08 63 d2 ff da bf
       -0.20740240819894615 -0.42186412497842274
000240 30 35 b2 16 06 1e d0 bf 61 e2 7f 2c f0 2e c6 bf
       -0.2518325063363873 -0.173307439544959
000250 41 65 d2 27 2c 38 cf bf b0 28 f9 5c f1 dc d5 bf
       -0.24390174812723767 -0.34161027984067527
000260 37 62 d8 df 87 08 c9 bf 1a 16 81 c5 cd 32 c9 bf
       -0.195572838115156 -0.19686290878068818
000270 f5 a7 6f 8d a8 9e d1 bf 59 f6 68 66 11 71 d0 bf
       -0.27530874073147454 -0.25690112114884794
000280 95 d6 eb ec 01 b0 d3 bf 9b d9 95 5f 1b 3a d3 bf
       -0.3076176465686811 -0.30042156538493153
000290 48 ca 3b e2 92 6c d2 bf 5b a6 a1 9d 14 7f d0 bf
       -0.28787681668396603 -0.2577563800210549
0002a0 c4 17 72 bf 38 e4 d0 bf 04 e3 51 5a 9e ce c1 bf
       -0.26392954536310875 -0.13911799821996607
0002b0 c4 a7 4b 14 1f 26 d5 bf e4 d3 a4 b5 3b 98 cf bf
       -0.33045174581513614 -0.24683328980759633
0002c0 21 58 d3 29 6c 51 d0 bf 88 a7 a4 5a b2 84 d1 bf
       -0.25496963581588444 -0.2737241635501211
0002d0 42 c9 fe 96 f4 f3 cc bf 05 9c 1e 15 20 a1 d4 bf
       -0.22619492886367182 -0.32233430921991185
0002e0 69 9c f4 1f bc 36 ca bf 7f 75 c8 79 fc fc ca bf
       -0.20479537544563023 -0.2108455271381153
0002f0 cc e1 9a 66 c0 da cf bf c9 3a e3 02 f4 70 d0 bf
       -0.2488632679940238 -0.2568941143226025
000300 34 6e 18 fc 50 c3 c5 bf 4d f0 0f ec 95 fe d0 bf
       -0.17002308186862225 -0.2655386739058983
000310 f6 53 1e c1 03 20 d2 bf 89 4c 49 6c 88 65 cd bf
       -0.2832040201113267 -0.22966103827875298
000320 dd bf a1 fa e6 24 d0 bf 83 22 e1 10 81 fd d0 bf
       -0.25225233531727814 -0.26547266624815097
000330 58 fd 36 ee 97 40 d3 bf c7 32 36 e7 be 82 d2 bf
       -0.3008174730602682 -0.2892300851752165
000340 b3 fd ff 44 23 cb c5 bf 39 3b ff bb 87 9b cd bf
       -0.17026177281512175 -0.23130890540638818
000350 24 ee 47 23 0e 53 c8 bf a5 7f 4d 53 99 ce d0 bf
       -0.1900346443434141 -0.26260979781181454
000360 c3 42 15 6e 96 a4 c5 bf c3 3e 80 94 bb af cf bf
       -0.16908531546734737 -0.2475504374601681
000370 c1 d0 5a 30 04 16 d0 bf 41 64 be ea 02 d0 ca bf
       -0.25134377214568465 -0.20947300397964067
000380 d1 dc 8c 43 5b e0 cb bf 5e 2d b6 39 39 b5 ce bf
       -0.21778431700088288 -0.2399055034442012
000390 ca 8c 16 5b 06 df d1 bf 3a 9d ad 10 61 55 d3 bf
       -0.27923735518761517 -0.3020861304161887
0003a0 28 87 9f fc 6a 4c d6 bf e7 b6 39 02 34 72 ce bf
       -0.3484141795180329 -0.2378602038256112
0003b0 af 04 cb 55 20 98 d5 bf 07 5f ae f8 f4 12 d1 bf
       -0.33741005304552635 -0.266782038548158
0003c0 d0 63 bc 8a 2d 99 ce bf 29 d0 6c 23 4d a0 d6 bf
       -0.23904961847509165 -0.3535340162227408
0003d0 2d de 26 f2 16 53 cf bf cf 7d 2c 6b 82 58 d5 bf
       -0.2447231943494769 -0.3335271879786576
0003e0 9a 69 40 ab d1 47 cc bf 8d 3b df ea 2c e2 bf bf
       -0.2209417425336369 -0.12454491361789462
0003f0 bc 5a 46 cc 51 d2 d3 bf 40 34 f5 d0 90 79 c8 bf
       -0.3097118849631604 -0.19120989039439173

linear2.weight f8 [64, 128]
000000 1b df 12 c3 e5 18 84 bf 17 d5 54 dd d7 74 b4 bf
       -0.009813113227536576 -0.07990788606260356
000010 34 c1 c2 65 59 9e bd bf 44 29 0b 30 f7 f5 90 bf
       -0.11569746717828339 -0.01656328421339849
000020 a5 0e 92 9e 65 8a 87 3f 66 e1 35 6b 02 75 bd 3f
       0.011494439984978408 0.11506667249148492
000030 36 59 4e 72 9c 6c b7 bf 57 f5 ad 79 2a c2 b3 3f
       -0.09150102415728587 0.07718148680392765
000040 cf 6a a5 ff 0b 19 b5 bf 17 f3 c2 f5 46 50 9a 3f
       -0.08241343489991525 0.025696858167736893
000050 80 d4 58 7a 77 30 bf 3f 0b 23 69 dc ab dc a3 bf
       0.12183329331385728 -0.03879296365318482
000060 31 69 62 02 28 46 c4 3f b6 ea 7b fa 1d 7e aa 3f
       0.158390999950663 0.051743447138468054
000070 73 d7 51 62 ac 12 b0 3f 44 92 84 00 23 a2 b0 bf
       0.06278493309386395 -0.06497401011126508
000080 da 62 46 ae f9 01 b4 bf 1b 54 15 e3 c9 7f ba bf
       -0.07815514092215939 -0.10351239961649165
000090 7f 5a 8d 1f 8b 03 bb 3f e8 b8 6e 35 24 62 c4 bf
       0.10552281875912149 -0.15924503907212473
0000a0 da 0d 48 d2 fd 12 c2 3f 16 34 70 fb 20 26 91 3f
       0.14120457427644234 0.016747012468886956
0000b0 d1 4d a0 2e fa 1e a8 3f d1 21 4d 6f 5d b5 ad bf
       0.047111337844537034 -0.058024329983314644
0000c0 fd 8f 06 64 0f ff a0 bf b8 d6 4a 82 40 dc b5 3f
       -0.03319595428482101 0.08539202862706474
0000d0 45 3e ad d8 ed 00 b9 bf 99 f3 29 30 f2 9d ab 3f
       -0.0976704267497946 0.05393940771043688
0000e0 89 99 04 84 18 e8 b9 bf d5 c1 8d 54 da 48 b2 3f
       -0.10119775031180302 0.07142414631176248
0000f0 19 b6 72 d4 29 63 bd bf d2 55 dd 75 e7 10 c2 bf
       -0.11479436337204908 -0.1411408734808633
000100 19 ec 85 84 f3 82 a1 bf 79 77 0d a7 cf 79 ba 3f
       -0.03420220368112598 0.10342119053299638
000110 70 e2 fa d0 5a 59 ae bf ae 33 e3 6a f8 8d 77 bf
       -0.059275472650772154 -0.005750627881025245
000120 76 64 f8 e7 30 a5 b1 bf d9 30 df 84 d7 32 97 bf
       -0.068926865228052 -0.022654883847096883
000130 f4 26 3f 67 c0 41 b0 3f 0d d3 c6 5e 74 ab c3 3f
       0.06350328941985223 0.1536698782707834
000140 b0 79 88 c2 a7 0d bf 3f 39 13 f5 f6 11 6d bc 3f
       0.12130211352675846 0.11103927878600652
000150 b9 6a fa b8 c5 92 be 3f 2c 1b 2a 85 57 05 93 bf
       0.11942706838673701 -0.01857506513854472
000160 3c da cb 24 90 1b bd 3f 0f 1e 01 16 49 bd c2 3f
       0.11370182894084108 0.1464015347903431
000170 62 e2 53 57 e0 fd 8e 3f 8c 33 81 d6 06 82 b6 bf
       0.015132668175725065 -0.08792155014925934
000180 bf 2b e4 8c be fb b6 bf 5c 78 fe a1 d3 49 7a bf
       -0.08977881374100515 -0.006418062868673937
000190 d2 f2 36 88 a7 c4 c3 bf ae 4f e5 3b 28 ca bb 3f
       -0.15443891669374082 0.10855342352198136
0001a0 54 2c 7b 7b 37 4c a7 3f 8a 1a a8 c6 dc 29 ad bf
       0.045503362487203575 -0.05696000981338496
0001b0 a1 ea 4a 03 d6 de 83 bf c2 6d a1 29 ba 88 b3 bf
       -0.00970236966656063 -0.0763050414693032
0001c0 6d 76 65 be 56 3d ac bf ce aa 33 9f 08 65 b9 3f
       -0.05515547823118259 0.0991979015995341
0001d0 f2 3b c3 89 4d 8e c0 3f 15 ea 45 b8 bd 0b 97 bf
       0.12934273935977064 -0.02250572621549381
0001e0 6e 0d 9a d7 f6 3e c7 bf aa 6f ba 45 cd 64 ad 3f
       -0.18160901572637606 0.057409682046653046
0001f0 aa c2 59 80 15 7c a1 bf 49 65 d9 5f d0 e8 96 3f
       -0.03414981071262464 0.022372489786311154
000200 b6 d9 aa 51 c3 de b8 3f d0 45 91 26 d0 41 b9 3f
       0.0971490930922759 0.098660478034865
000210 04 58 9c 45 fe cc b1 bf 0a c9 3c 52 b3 e5 a4 bf
       -0.06953419875603123 -0.040814975537061995
000220 79 63 11 38 3e fb b0 3f 62 2f ad bb e9 89 c0 3f
       0.06633366459699443 0.1292087713612729
000230 3b aa 1d 90 7d ef b8 3f e1 bf b6 09 66 7a c8 bf
       0.09740433472112724 -0.19123530840215522
000240 10 fb f4 fb 83 eb ba 3f 52 15 c0 53 8c c2 cc bf
       0.1051561823014533 -0.2246871384560714
000250 12 86 a4 ac 85 6b 98 bf ce 94 70 80 f1 3b ba bf
       -0.023847664510986695 -0.10247716317879282
000260 2b 46 9f bc b3 41 b7 bf c0 25 9c 18 cf b3 8c bf
       -0.09084628443749725 -0.014014833391700843
000270 44 64 8b 69 b6 95 c4 bf 3a 06 27 60 14 f2 a3 3f
       -0.16081886437931037 0.03895629571662736
000280 fc 75 31 14 1c 5d bf bf 6e 21 02 0b f4 79 c2 bf
       -0.12251449101446349 -0.14434671914592506
000290 5f 45 b7 8c c1 6b b6 3f 9b cd 1b 16 31 7e b7 3f
       0.08758172688910325 0.09176928319702997
0002a0 11 22 e3 53 dd db c0 3f 17 cb e3 ec 6f 61 ba 3f
       0.13170973392540522 0.10304927380984129
0002b0 9f e9 60 2a 61 52 b4 bf a7 d5 7d 11 ce 9d a5 bf
       -0.07938201222069673 -0.04221958125610153
0002c0 fa 99 ff 70 69 71 b1 3f 48 f5 32 04 ed 18 a2 3f
       0.06813677796126419 0.035346419107990246
0002d0 e9 b0 a9 2d 3e d9 a7 3f 0a 1f fe 65 3d 58 9d 3f
       0.04657930667312533 0.02865692076696206
0002e0 d9 ab 8f ca 2c 49 ba 3f 4a e4 b4 6e 2f e8 b9 3f
       0.1026790613683909 0.10119911625669534
0002f0 44 56 fc 9c 59 96 b4 bf 79 c6 3a 59 68 96 b0 bf
       -0.08041915972383956 -0.06479503801781474
000300 51 a1 f6 0c 97 46 a8 3f 39 14 22 0a c7 7a 60 bf
       0.04741355927700631 -0.0020116698734136376
000310 69 56 73 9c 32 6a a4 bf f1 2e c5 46 73 96 ac bf
       -0.03987272414967153 -0.055835344685503226
000320 34 e9 ad c4 01 a9 a1 3f e6 5d c7 07 12 ba aa 3f
       0.03449254537459226 0.05220085473018425
000330 97 c9 03 3f ad f9 b5 3f 82 66 32 8e 69 0b c2 bf
       0.08584101475188387 -0.14097327655035846
000340 6b c1 a8 6d f1 c5 c0 bf 5a 9c dd 73 cd 9d 9c 3f
       -0.1310407433934516 0.02794571895301732
000350 13 b7 d5 d7 cc c4 af 3f 66 56 e2 b1 95 ff 7c bf
       0.062048341128372674 -0.007079682107492857
000360 6f 9d b8 7f c9 bd c3 3f fd 7c b5 34 4c 08 a5 3f
       0.15422934280762088 0.041078931268879494
000370 3b 53 55 9c c3 e7 af bf c8 bf d0 8c d2 d6 c0 bf
       -0.06231509478917593 -0.13155586124184837
000380 06 66 23 5b 17 5a b6 3f a6 13 ed 40 21 0e c2 3f
       0.08731218314223818 0.14105621023386766
000390 36 95 79 ae 77 65 7b bf 1e ee f7 83 1a 4f b9 bf
       -0.006688563829446983 -0.09886327478300713
0003a0 7f c0 a4 61 65 2e b9 3f c0 82 5a f8 ed 83 ba 3f
       0.09836419710041076 0.10357558549231793
0003b0 50 86 34 f7 63 6d 66 3f 37 d9 aa 83 87 4a ae bf
       0.0027377083257682858 -0.0591623638369349
0003c0 7a 5b bf 24 92 48 af 3f 4e 63 e2 54 61 cf bf bf
       0.06110054682328943 -0.12425812075015338
0003d0 e0 2a f9 65 ea ea b5 bf 0f 49 28 3b 05 8f a4 bf
       -0.08561577787001395 -0.04015365931640435
0003e0 8c 6b ac 5a de f9 c0 bf 10 bf 92 bd 3a 9e a3 bf
       -0.13262538363855148 -0.03831656993986432
0003f0 6a 03 e4 62 d4 5a c1 3f 6b 50 0c aa 37 22 8d bf
       0.13558440045019476 -0.014225420834499588
000400 8d 6f c0 23 40 cf c1 bf 9e 71 fd d3 36 54 8e bf
       -0.1391372847145899 -0.014809063286229936
000410 49 ca bc 00 98 66 bd 3f 1e f3 fb 89 53 cf c0 bf
       0.11484670656208452 -0.13132709729679787
000420 f8 3f 7e 3c 49 98 81 3f d2 8d f9 fe 2a 89 67 bf
       0.008591243895153852 -0.0028730239644560807
000430 dd 71 d8 79 31 cc 93 3f b8 c1 52 27 03 3d b3 bf
       0.019333622991426814 -0.07514972410240872
000440 94 d8 5c e5 9a 02 af 3f af 45 ff fb 39 46 bc 3f
       0.06056675004804038 0.11044657137178747
000450 27 fa 44 d8 45 dd 67 bf 5d 1d 10 1a d9 47 c0 bf
       -0.002913128295545481 -0.12719262859921346
000460 4b 8d a8 24 af 34 ab 3f f0 9e 9d 5b e6 7b ca bf
       0.053136323189642974 -0.20690612290785948
000470 65 e1 06 5e 05 46 a2 bf b7 9b a5 6e 99 e6 b2 3f
       -0.035690467574968555 0.07383116675701627
000480 3a 81 72 ce 91 dd 77 3f 2c 19 3c a8 e3 c1 a0 3f
       0.005826539570222439 0.03272925785681688
000490 f6 62 57 7e c7 46 b4 3f 42 31 f7 39 c9 79 8a bf
       0.07920500597482402 -0.012927600938291154
0004a0 b4 66 27 ba d7 e7 b2 3f 5d ed 1e d3 62 4e cc bf
       0.0738501386143991 -0.22114215191491385
0004b0 c3 ea 06 88 95 41 b1 3f 43 67 63 e3 f2 0b 99 bf
       0.06740698405239258 -0.024459643486671522
0004c0 c7 76 d9 4b cb d8 b3 bf 8a 54 08 ac 3b 0f a0 bf
       -0.07752676584047001 -0.03136621928221313
0004d0 f5 f9 c8 e7 a7 21 c1 3f 2d 71 4a db 4f c3 a2 bf
       0.13383959596281128 -0.0366463618458702
0004e0 7e 12 29 d6 95 90 a9 bf 85 b7 92 c3 96 7f 7e 3f
       -0.04993122329009213 0.007445897027691721
0004f0 f9 ef ec 0a 52 09 b7 3f 22 86 44 6c 2f 03 9f bf
       0.08998596922623382 -0.03028558824838091
000500 c8 e7 19 d4 ac 4b ae bf 23 95 e8 bc 87 be ac 3f
       -0.05917110528112307 0.05614113026630665
000510 f4 a2 c2 6a 2a b6 95 bf 32 d6 50 9f c1 b1 b8 bf
       -0.021202719465381173 -0.09646234645409704
000520 2e 52 cb ee c3 80 b7 3f 96 89 9d f9 5d 43 9b bf
       0.09180855350434378 -0.026624172554315338
000530 f0 de e2 e2 13 b9 9a bf fa 3e 99 b4 d5 36 b2 3f
       -0.026096640322719133 0.07114921244760444
000540 c6 95 da dd 76 a5 be bf 72 89 f1 11 c7 6d 7f 3f
       -0.11971228519777019 0.007673051469370017
000550 fc eb e3 2c 72 86 b0 bf 49 ad 0f c2 1f da bd 3f
       -0.0645514831157214 0.11660955894301596
000560 ca 26 95 1c e1 e8 ad 3f 4f cb 6e d6 b7 95 b4 bf
       0.0584173533812425 -0.08040951714683085
000570 70 67 c6 e4 c5 7b 99 bf 28 25 35 2d 35 39 9b bf
       -0.02488621910888561 -0.026585417637112446
000580 ef 4e 44 cd f1 92 bd bf a9 3f b4 70 1e 66 c0 bf
       -0.11552344571492389 -0.12811642172937113
000590 da d6 5f 40 f6 1f c0 3f 75 e8 e9 28 1b 05 c4 bf
       0.12597540038375749 -0.1564058255933706
0005a0 80 89 6d 54 37 e6 c3 bf a3 7a 1c 7d a7 e0 bf bf
       -0.15546313879447027 -0.12452170185540949
0005b0 9a b7 62 94 92 a6 a9 bf a9 17 1c 33 b3 a5 84 bf
       -0.050098972905615116 -0.010081672665830004
0005c0 95 f7 88 7d bb 73 c0 3f ac 8c 5a ae e8 62 b7 bf
       0.12853187207832364 -0.09135298020059918
0005d0 55 3a 7d 8b ad 22 8c 3f c9 cb 69 7c 7c 22 c4 3f
       0.013738017863628086 0.1573024375425958
0005e0 7d 7b 05 d7 ad 90 c1 3f d2 02 6f 40 2e ef c4 bf
       0.13722775458424144 -0.1635492148034446
0005f0 7c 6a ff bf b2 5b ac bf b7 de ca 07 b9 9c b7 3f
       -0.05538710206720496 0.09223514976735712
000600 16 60 01 7c fb 7f bf 3f 2a f4 ae 17 c5 c1 b3 bf
       0.1230466058490268 -0.07717544391830758
000610 fc 64 60 99 13 c2 66 bf cf c5 a4 c3 8c 58 b2 3f
       -0.0027780897899104522 0.07166366363960396
000620 71 6b 5e bf 07 fc be 3f aa 7e 8c 31 8d 80 80 3f
       0.12103317663279058 0.008057692598924266
000630 c3 20 88 e2 c2 79 9d bf 7f 2e d4 30 ec c6 bf 3f
       -0.028784794880295516 0.12412906829939095
000640 3c 6d 0b e2 13 a4 ad 3f 25 07 96 1a 49 42 b8 3f
       0.05789243826230936 0.09476143740723993
000650 3a be b3 5f f4 97 c3 bf 00 45 1c 30 a1 8c 93 bf
       -0.15307478592829843 -0.01909114700453518
000660 b4 25 e4 16 c4 08 c4 3f 01 51 f6 ea 38 2f c1 3f
       0.15651751630529775 0.13425361130487803
000670 3e df b4 ff 67 b7 c9 3f 23 99 ca b6 53 eb ae 3f
       0.20090961442633132 0.06038915258732149
000680 fa c5 e3 1d a6 78 bd 3f 3d 65 58 08 d9 fb a1 bf
       0.11512220601778003 -0.03512457110282206
000690 13 e4 22 f6 a3 35 9a 3f 9d 1b a4 d9 f9 c6 b5 bf
       0.025595247171370582 -0.08506738246442898
0006a0 1d 1b eb 6d 0a a5 ab bf 0f ee a4 36 3f 75 92 3f
       -0.053993535917063996 0.018025386533947748
0006b0 1f 3d 30 a1 92 79 c1 3f da e9 8b ff b0 66 c0 bf
       0.13652260656861245 -0.12813389280184034
0006c0 cd c2 32 ff a1 a8 7d 3f 55 8f ae df 95 4a 9d bf
       0.007240898895518111 -0.02860483339067284
0006d0 33 a7 60 da 70 64 a1 3f cd 3e 6a e9 3d d7 b8 bf
       0.03396942773572533 -0.09703432987793832
0006e0 1b a3 83 4d 28 4f cc bf 71 c2 47 54 2b 1c a3 3f
       -0.2211656931388227 0.037324289358257164
0006f0 54 1e c2 86 83 7d b4 3f 6a fe cd 70 fa 91 ab 3f
       0.08004018821713405 0.053848100919819356
000700 3f 47 dd 1c 40 2e b9 bf 98 04 59 82 9a 69 b0 bf
       -0.0983619757146501 -0.06411138231580293
000710 04 e2 b2 1d f8 aa b3 3f 75 f1 d0 da 85 01 b0 3f
       0.07682753300731099 0.06252323715393067
000720 cd 28 c6 ef 7b 93 94 3f 3a c5 ea 05 94 45 c2 bf
       0.020093857297560903 -0.14274835862082985
000730 78 5e ea 93 0c f4 8e bf d4 84 b7 a2 5b 2d a5 3f
       -0.015113924278281163 0.04136167870798038
000740 d7 32 52 b9 26 24 a8 3f 8c 3e a0 85 d6 31 a3 bf
       0.04715081226558986 -0.0374896085851307
000750 2a ab 71 1b 3f c9 be bf 65 7a 07 29 b5 10 55 3f
       -0.12025827808399173 0.0012857216971650317
000760 1f dd 77 64 35 c1 b0 3f 0e b2 75 1a 25 e7 bc 3f
       0.06544812872731541 0.11290199180593438
000770 8c 84 22 50 15 6b bc 3f e8 ac f9 5e 50 21 b8 3f
       0.111008960785073 0.0942583305238035
000780 49 27 5c 2a c1 e7 59 bf 03 c7 e7 18 a2 7c aa 3f
       -0.001581133497384051 0.051732125797469684
000790 7a 14 06 6f f0 16 b2 bf 60 92 f5 8e 00 4e 40 3f
       -0.07066252432385225 0.0004975798346263487
0007a0 8d cb 8e 84 e9 e1 b3 bf f1 04 5e e1 19 a1 be 3f
       -0.07766589628481153 0.11964570762758676
0007b0 36 cb 70 43 5a c7 8b 3f 91 d0 d8 88 8e 12 c0 3f
       0.01356382864296322 0.12556630784968495
0007c0 62 3b 40 13 74 a9 c6 bf ec fc 89 de 35 69 94 3f
       -0.1770463079451146 0.019932595927909455
0007d0 28 13 df 54 c8 f6 aa bf a4 d4 d3 c8 7c ae a8 bf
       -0.05266405139949476 -0.048206233515807356
0007e0 d1 63 4e 58 f1 7a ad bf ec 54 e7 46 4f 24 c4 bf
       -0.05757860377270386 -0.15735808336345458
0007f0 c9 f5 5a 30 ac d9 b8 bf 06 71 44 3a 45 49 8f 3f
       -0.09707142048406249 0.015276470986059564

linear2.bias f8 [64]
000000 9b 58 89 59 1c 8c aa 3f fb 1b db 64 5f ce ac 3f
       0.05185021012282328 0.05626199823523589
000010 5d 61 b3 bc c1 ff a9 bf 06 95 59 fe d9 42 a9 bf
       -0.050779394421342806 -0.04933816175324961
000020 71 d8 57 ff 1f 73 b7 bf ff a6 06 76 6d 47 af 3f
       -0.09160041793788466 0.06109182420489211
000030 23 e1 3b 50 0e a3 ae 3f 66 c0 7d db f4 ab ba bf
       0.05983776788156294 -0.10418634756729403
000040 14 32 a1 b4 4a 7b a1 3f d2 a6 3d ba 4a 9b ae bf
       0.03414376692726165 -0.05977853320548622
000050 a5 7c a7 bf bb 39 ba bf 41 c5 fc 1e a0 f0 79 3f
       -0.10244344166811688 0.0063329939583110515
000060 1d 98 de 6b ef 5f a7 3f 6b c2 b7 da 06 62 6f bf
       0.045653802793182964 -0.003830922496256319
000070 37 0f e9 0f 08 1f 89 3f 78 c9 de 60 dd e6 70 bf
       0.01226621912531521 -0.0041264197915772335
000080 16 0e d0 5f 25 a8 36 bf 42 8a 65 c2 df 24 be bf
       -0.0003457156415722374 -0.11775015350352994
000090 bc 55 e0 36 6c c0 90 3f 10 38 3b 11 7c d5 9e bf
       0.016359034394630476 -0.030111254264561238
0000a0 10 bb eb d7 4f 13 9d bf d8 fd ef 8c 62 bb b0 3f
       -0.028393981508027244 0.06535926762443667
0000b0 11 3d 60 f6 57 35 a5 bf 62 5c 75 2a c2 84 b6 bf
       -0.04142260439413737 -0.08796323334296255
0000c0 80 03 8f 9e 7c d7 7a bf 77 ca 83 6b 54 15 b2 3f
       -0.006553160471356345 0.07063796639321561
0000d0 43 bb f0 cb 5c ac bd 3f c4 65 3a e4 79 10 7b 3f
       0.11591129282963401 0.006607509745344801
0000e0 1c ee 31 4a 5a 22 a0 3f 3c a5 83 f2 5c d0 af bf
       0.031512090260516795 -0.06213655910853297
0000f0 ae 89 4c 62 b5 77 a1 3f 2b 24 a0 08 ee 32 a7 3f
       0.03411642861307783 0.04531043868343717
000100 3c db 5a cf b8 b4 78 3f 9e 05 6b cb b4 25 a0 3f
       0.006031724847779082 0.03153767569666431
000110 06 f6 4d 22 fb e6 ab bf a2 ba 6e c8 36 b2 7d 3f
       -0.054496620118680325 0.007250036235673692
000120 a9 be 26 3e da bb ab bf 5a a2 b5 dd 0d 3b a4 3f
       -0.0541675759189933 0.03951304751791858
000130 14 55 04 95 2e 70 b4 bf a4 d4 6d 41 8e e4 ae bf
       -0.07983676088436581 -0.06033749149984516
000140 f6 62 a1 1f fa fe b7 3f 34 70 1f 79 ea 09 9d 3f
       0.09373439094759903 0.028358138697385196
000150 de eb a3 04 f2 a6 c0 bf 81 ef fa e9 12 f6 ad bf
       -0.13009476877763765 -0.058518019735372746
000160 5e 73 ec c9 ba 9d 81 3f 22 45 37 f3 24 5d 89 3f
       0.00860162667009384 0.01238468997226733
000170 d5 3a 32 15 2f 8c 97 3f a5 7f b8 a4 06 3f 9d 3f
       0.022995696705545427 0.028560737422708055
000180 0c e7 a2 6e 2c 18 b7 bf 99 b4 ed 88 cc b1 b4 3f
       -0.0902126093013999 0.08083799689275607
000190 7a 1e 3e 39 75 c5 a9 3f 57 e1 b6 48 01 a0 b6 bf
       0.05033460925829743 -0.08837898278477972
0001a0 93 bb b5 9d 1e 6b b6 3f cd 40 00 fe 40 8e a7 bf
       0.08757201528872675 -0.046007185941677166
0001b0 59 c9 a5 dd 7f b9 68 3f ce 20 fe 5b 6b b9 7a 3f
       0.0030181405429000993 0.00652448594326689
0001c0 df 4c bd 1b db ff a8 3f fe a1 83 b9 ca 57 a4 3f
       0.048827025543369144 0.03973229899003526
0001d0 ce 9c b5 c4 14 60 ba bf 16 1d 07 e2 0a e8 b9 bf
       -0.10302858164287729 -0.10119693773514302
0001e0 cc 52 a2 f9 90 23 93 3f 02 d6 62 8d 72 58 ba 3f
       0.01869036220212443 0.10291210128601594
0001f0 aa 02 77 c5 a5 c3 96 bf a7 41 a4 b2 eb a8 95 bf
       -0.022230711152362893 -0.02115219381181679

linear3.weight f8 [32, 64]
000000 e2 03 fc 0b f9 a9 83 3f fc 7f e5 b2 63 3e c6 3f
       0.009601541212306889 0.17377897486858263
000010 cd ad 6d fc de d9 c4 3f e2 cf c7 2a 47 2f b2 bf
       0.16289889646155445 -0.07103390497633158
000020 d9 20 70 93 f2 ca c2 3f ab d9 ce c2 d6 81 b7 3f
       0.14681846808549073 0.09182493454031852
000030 b9 64 50 ab 1f 1e 94 3f cc 62 56 3e 4d c7 a6 3f
       0.01964616282575513 0.044489301547576326
000040 38 47 1c 7c 17 d4 ca bf b3 ec 20 0d d6 c9 b9 3f
       -0.20959752616959704 0.10073602505228756
000050 36 1d 54 63 1b a2 9b 3f c6 fc 65 6c 00 c7 af 3f
       0.026985576570067248 0.062065137130952006
000060 03 76 c6 b3 66 79 c1 3f f4 25 fd 03 a8 b4 a7 bf
       0.13651737001502803 -0.046300173270150596
000070 73 a7 c5 a2 74 65 b6 bf 7d 3c ce 3a 96 7d b4 3f
       -0.08748558973243607 0.08004130302127695
000080 01 73 cc b6 01 d1 a5 bf 81 02 60 29 62 2a a0 bf
       -0.04261021953991496 -0.03157336001459488
000090 e6 16 e4 0c 6a 23 a6 bf 57 cc 63 9e 7a 1c ca bf
       -0.04323893935547378 -0.20399410947684046
0000a0 95 13 02 13 0c 14 86 3f 00 9a 4d 93 22 56 b4 3f
       0.010780424432832262 0.07943931671398019
0000b0 16 4f 05 c8 ce b5 a7 bf 1f 0c 39 ea 14 5f 90 bf
       -0.0463089579740467 -0.01598770789702197
0000c0 6e 40 81 af 76 d6 c5 3f f8 7f 4c 39 fd 06 d0 3f
       0.1706074101407497 0.2504265842017044
0000d0 c9 68 af 04 8e c9 af bf a8 6d 94 75 8d 8b a4 3f
       -0.06208461577598851 0.040127201655390465
0000e0 b7 4c 38 44 db d0 b3 bf 2c 25 96 a1 09 ef c8 3f
       -0.07740564742589383 0.19479484930006075
0000f0 b1 53 47 42 34 11 c7 bf bb 14 34 46 fc 18 bb 3f
       -0.1802125285745695 0.10584999765349583
000100 01 01 96 9f e6 b1 a0 bf b0 77 02 1d 04 55 c1 bf
       -0.032607275944430476 -0.13540698448644894
000110 69 13 fc 4a 2f a6 ba 3f b4 78 32 ad 40 7f c6 bf
       0.1040982778614087 -0.17575844246761607
000120 64 02 a1 ea 4a 17 74 3f df 4e 48 33 27 fb 9a bf
       0.004905026095059915 -0.026348698143990098
000130 85 62 10 99 b7 a0 a7 3f ca 20 34 69 80 50 8b bf
       0.04614804976899215 -0.013337138376769881
000140 2c 97 a2 7c 58 81 bf bf f4 6a 99 84 15 a7 b8 3f
       -0.12306740801667776 0.09629950034415541
000150 57 5f 8f 94 9d a3 b3 bf c2 b9 68 b6 24 1e b1 bf
       -0.07671532513574895 -0.06686620190951145
000160 61 10 7b 1d 69 17 cb 3f 20 77 b2 a0 b5 3f 90 3f
       0.21165193500030724 0.015868032391714526
000170 34 95 74 d6 48 23 c5 3f c3 24 56 67 9e 79 cc bf
       0.16513929816680106 -0.2224615101406809
000180 b1 7b 09 d8 0f cc 5d bf 02 47 9e fb 78 45 b0 3f
       -0.0018186716771635243 0.06356006758712954
000190 d9 42 b9 c6 bb 94 8e 3f b7 5e 85 1d e2 65 bb bf
       0.014932124139848056 -0.1070233652184197
0001a0 ab ab a2 95 01 49 c5 bf 11 dc 54 89 5b 54 8a 3f
       -0.16629047209184242 0.012856211784862766
0001b0 42 62 97 b9 8c 8a 87 bf 42 11 f3 ae 5f 98 bb bf
       -0.011494731344030677 -0.10779378911235418
0001c0 b7 0d c8 a1 61 84 96 bf a7 cf 49 c7 6b a9 72 3f
       -0.021989369868618627 0.0045561037155614
0001d0 f3 85 31 d9 e4 f4 b9 bf 33 01 06 2a d5 2e 6e 3f
       -0.10139303495954959 0.003684440933455013
0001e0 60 79 a7 09 2c c9 c0 bf fb 3d 53 2f be 83 cf bf
       -0.13113928290745047 -0.24620797453688667
0001f0 f0 44 58 4c fa 53 c9 bf 41 85 6e 4d ab f2 af bf
       -0.19787529685758143 -0.06239829368792949
000200 77 f3 a8 fb ab f1 d3 3f 65 9e 4e a2 a8 26 a6 3f
       0.3116254766098829 0.04326369267738243
000210 bf 67 2e 59 58 6b b3 3f a3 57 a5 da 53 fe b0 3f
       0.07585670640256036 0.06638073051484965
000220 7f a3 a6 63 19 e2 c4 3f 02 fa 46 8e fd 7e b2 3f
       0.16314999929207016 0.07225022052350741
000230 6c 8f 0d 32 50 bf cb 3f a9 6e dd dc 7a 4f c4 3f
       0.21677591747276936 0.15867553505346635
000240 6f 4e f0 27 a9 d2 c1 3f a3 5a a2 a2 36 23 be 3f
       0.13924135637408905 0.11772481413422979
000250 4f f8 23 db 2a 96 ba 3f c3 78 92 d5 d0 13 cd 3f
       0.10385387277708101 0.22716722896888628
000260 8a d4 c4 55 16 5a c9 3f 8d 05 4a 64 40 89 83 3f
       0.19806174457486164 0.009539130268651852
000270 b1 46 e2 a4 20 d3 b4 3f 6d c2 4b a3 d8 a5 c4 3f
       0.08134655023084282 0.16131122563776348
000280 57 bb 45 ae ee d1 af 3f cb ab 91 03 8c a8 ba 3f
       0.06214853169773587 0.10413432204374755
000290 6b db d5 e0 5b e8 85 3f de c5 18 2a 60 e2 8f bf
       0.01069709567921758 -0.015568496021930164
0002a0 20 55 19 3a dd 43 bd 3f 5e 7e d9 c5 e1 3a b6 bf
       0.11431677502089999 -0.08683596687614556
0002b0 51 ec dd 4b 1f b3 b5 bf f7 9b f5 38 d5 72 cb 3f
       -0.0847644386503117 0.214441922008717
0002c0 f3 92 86 ca 62 12 b3 3f 31 01 e7 d8 2c c3 bd 3f
       0.07449929661249736 0.11625938697307416
0002d0 1f 20 21 c7 24 3a a0 bf ff 6b 81 1b f5 2e be bf
       -0.03169360094813122 -0.11790401383898085
0002e0 f1 8b 8b d6 08 54 ca 3f 5b 76 4b f5 eb da ae 3f
       0.20568953014216576 0.06026399010964375
0002f0 68 94 eb 95 d6 18 ca 3f 8c 56 9d d3 ec 13 b0 bf
       0.20388300247501268 -0.06280403295871845
000300 b1 29 14 64 6f d9 bf bf 26 ea 81 fe 86 73 bf bf
       -0.12441154664353495 -0.12285655702172757
000310 06 5c 8c cf 99 07 b8 3f 3f a3 a0 73 75 9d c8 bf
       0.09386597935768756 -0.19230526109574872
000320 84 16 28 5e 1e 63 b5 3f eb 9b 18 bd cc 6f c9 3f
       0.08354368017907104 0.19872435792169027
000330 90 6e 94 0e 34 c4 a2 bf 19 80 33 09 dd 01 39 3f
       -0.03665316274620267 0.0003815807951479413
000340 f1 c1 b2 48 b2 63 6d 3f 8c 89 37 a2 6c 17 be 3f
       0.003587578020948217 0.11754492721914839
000350 eb 36 5c 35 ba fe a2 bf 81 ab 9d fd e3 ee bd bf
       -0.03709966565484798 -0.11692643110079183
000360 20 e5 a4 38 f2 6b d2 3f f3 45 30 0f 3e 9d ae 3f
       0.28783851176884134 0.05979341445357624
000370 5e b8 fe dc 27 0e bc 3f c3 06 d7 e9 f6 83 9c 3f
       0.1095909990824295 0.0278471546387269
000380 23 e6 b1 c1 66 66 c6 bf 5a 15 4b 98 0a 74 d2 3f
       -0.17500004251250897 0.2883326041449742
000390 1f 93 bb 24 e5 04 ab 3f f7 9a 90 d7 08 cb b4 3f
       0.05277172158620246 0.08122306120695187
0003a0 8c c1 96 5f 85 a5 cc bf cf 86 d3 0a a0 ed bf 3f
       -0.2238012997381812 0.12471962227166532
0003b0 e8 f3 3a 49 03 e4 ad bf ea 1e 00 22 d6 d3 77 bf
       -0.05838022488521927 -0.005817257362657572
0003c0 3f 71 24 7c 99 9d c3 3f f7 eb de 82 1f 6b bc bf
       0.15324705659521418 -0.11100956864440535
0003d0 46 c9 cf d0 28 32 bc 3f 94 19 2c 49 27 04 d0 3f
       0.11014037225667037 0.25025350709656746
0003e0 1d 68 e8 eb 75 7d 76 3f c6 86 99 e4 2c 66 85 bf
       0.005490742331426571 -0.010448790289220421
0003f0 32 68 bf 84 0b e8 cc 3f d8 ff f9 3b ef 0c b2 bf
       0.2258314512426423 -0.07050986494323241
000400 1c 5d 23 5b 57 58 b2 3f 8b 48 5d c0 95 5e a9 bf
       0.07166048026134714 -0.04954975102613542
000410 0b 35 82 33 a0 08 8e bf 6e b9 31 6c 41 11 ce 3f
       -0.014664889881056206 0.23490159781381287
000420 6b bc a3 cb b9 11 c7 bf 48 52 02 a8 85 c3 b6 bf
       -0.18022844737376728 -0.08892093040260207
000430 60 8f 55 9d 53 45 c3 bf 87 32 89 24 e3 a0 c2 bf
       -0.15055318052611266 -0.14553489002209494
000440 75 ee 01 e2 e5 da ca 3f b1 4a 01 86 20 69 c0 bf
       0.2098052362015214 -0.12820822280135283
000450 ed dd 9c f8 a7 79 a0 3f 07 4c 30 79 f7 11 b8 3f
       0.032178162668454614 0.09402414997775575
000460 9b 38 fc 01 26 a7 bd bf 58 2f b3 30 1d 3f 58 bf
       -0.11583173321216338 -0.0014798913060074161
000470 78 1d 2b fc 6c 71 86 3f 86 6f b6 73 07 7c a4 bf
       0.010958529897279176 -0.04000876700885585
000480 99 82 94 6b b7 25 a8 3f 2a 46 d5 16 31 fa b6 bf
       0.04716275394662723 -0.0897551232094648
000490 18 54 fd fd 7e 59 c7 3f 8c 9b 5a 29 6e f7 c8 3f
       0.18241870309671593 0.19505097407565264
0004a0 f4 97 09 c5 82 79 b9 3f 9b 4e f2 8e 2c 86 90 3f
       0.0995103579567454 0.016136833405268374
0004b0 bf a1 d1 07 06 43 80 3f 0b 5b 36 50 7c 11 b1 bf
       0.007940337289441211 -0.0666730590659023
0004c0 cc 5b e5 26 95 33 c6 bf fc 7b 43 38 17 8d be bf
       -0.1734491767808478 -0.119340373264535
0004d0 11 63 30 9e a1 17 c8 3f e0 5d 73 c9 53 fd b0 3f
       0.18822117065499147 0.06636546772221363
0004e0 b0 eb 19 54 65 27 cc 3f 7c 82 6b bb 8f 40 ab bf
       0.21995226484781716 -0.053226939800656375
0004f0 0b 9b 09 fa a0 43 b0 3f 6b d9 b4 f5 5d a5 74 bf
       0.06353193382674875 -0.005040518789704111
000500 34 66 93 91 14 bc a3 3f 1f e0 32 b5 2e 05 c4 3f
       0.03854431416557383 0.15640815589517928
000510 e2 cf 7b c1 d7 07 6c 3f fc 28 63 8c 37 79 a3 3f
       0.003421708486593276 0.03803418720925042
000520 24 07 cf 6c 8e f4 b6 3f 76 b0 ee 20 c4 37 ab 3f
       0.08966913372480839 0.053159836788240364
000530 09 d8 bb 6a ed b1 b8 3f c4 b2 df af 6c 8e ab bf
       0.09646495681576552 -0.0538209881486629
000540 de fc 4a c6 d6 b6 bc 3f 5f d0 42 87 e0 d5 c5 bf
       0.11216490117202535 -0.17058951000729203
000550 38 73 39 95 e7 c8 c8 3f d6 52 88 65 f6 3e 9c bf
       0.1936311224589191 -0.027583932826092582
000560 84 9a 9f bd 14 fa a8 bf 13 13 89 c2 a9 f3 b8 3f
       -0.04878296675433538 0.09746800422096795
000570 49 ec 2e ab 64 23 b0 bf 79 d9 75 d0 aa 9a c8 3f
       -0.06304005793838131 0.1922200696823884
000580 4a 3c 8a ca b5 1e c9 3f 06 38 ae 09 63 8c ca bf
       0.19624969854018764 -0.20740926716501934
000590 31 c6 18 fb 91 83 a0 bf 09 e7 b6 3f 9a 3b b9 bf
       -0.03225380125185174 -0.0985657125046623
0005a0 a3 c4 ae 82 d4 cf b1 3f b8 6f a8 a3 a9 67 70 3f
       0.06957748594756423 0.004005110410186967
0005b0 e5 48 25 ea af ff c1 3f 40 12 1d 0b f7 ec 97 bf
       0.14061545308010817 -0.023364887288396696
0005c0 7e 72 80 2a 32 c5 be 3f f9 ed 00 c8 a7 6b c3 3f
       0.12019647157326038 0.15172288194467834
0005d0 97 95 3b 54 a5 24 c4 3f b3 51 47 a5 1b e1 9b bf
       0.1573683415692073 -0.027225906336598004
0005e0 3a 73 4c 24 9e 09 a0 3f bd 0d eb 00 1f 89 ca 3f
       0.031323377543435574 0.2073096041186612
0005f0 92 f0 24 24 49 0e be 3f d3 d0 c3 75 6b a8 cb 3f
       0.11740548260144326 0.21607726335753927
000600 ba 07 62 37 74 2a bd bf e1 1b 82 6f 82 e8 c6 3f
       -0.11392904617426228 0.1789706272577112
000610 25 4c 92 56 92 76 a3 bf 26 4c 56 a8 0b 69 b1 bf
       -0.038014004772002154 -0.06800911769669024
000620 43 13 6a d6 29 3e ba 3f 72 42 3e c2 82 d3 c7 3f
       0.1025110386345434 0.1861422966435558
000630 00 a1 54 c0 54 24 cf 3f 0c 65 e0 e7 4d 76 b9 3f
       0.2432962359537285 0.09946143065498719
000640 06 7a d7 e0 b0 e4 a9 bf 90 fc 24 cf 33 69 a5 3f
       -0.05057289833688476 0.041818255459014186
000650 83 7c 83 68 93 78 a5 3f 30 25 35 4c 44 d1 bd bf
       0.04193554545212754 -0.11647440777337148
000660 50 ca 8d 93 61 5a b6 3f 79 f3 ce 06 50 59 b0 bf
       0.08731660702123034 -0.06386280218334929
000670 1c cb ca e1 eb 3e c7 bf 70 d0 3d 67 68 2e d0 3f
       -0.18160770916946312 0.25283250887083053
000680 7e 1d f0 f0 d8 9c c5 bf 5b bb 50 2d 53 4e 7b bf
       -0.16884910358951893 -0.00666649333019972
000690 7e b9 fd 4d ba 90 b7 bf 09 b1 ad c1 4c 84 ca bf
       -0.09205212024764894 -0.2071624704070774
0006a0 d8 fd eb 41 0b f0 8f bf 36 f8 88 57 3c 98 c3 bf
       -0.015594566296839682 -0.15308336519405125
0006b0 46 e9 e7 ee 41 ef 90 bf 1c c8 dd f4 c9 a5 b8 3f
       -0.01653769512811578 0.09627973774129867
0006c0 63 38 4b 6d ee 54 c3 3f 2a e4 0b b8 34 09 ce 3f
       0.15102939926731826 0.2346559427894886
0006d0 3d c9 6e 28 47 82 a9 bf 50 35 d2 c4 3f d6 ba bf
       -0.04982206696094458 -0.1048316817779853
0006e0 62 78 83 08 bd 0b bb bf 4a 9f 37 02 24 05 b7 3f
       -0.10564786393976669 0.08992219022877382
0006f0 7b e9 11 c6 c4 9c b2 bf 14 78 a0 2c a5 27 80 3f
       -0.07270459972088432 0.00788811724128994
000700 0c 1d f9 b2 35 2a b4 bf ef 10 9a 9a 1f 6d 93 3f
       -0.07876906985722004 0.0189709604369605
000710 f3 9e 39 2c a0 31 5f bf c8 50 72 53 6a 57 ba bf
       -0.0019039215266278247 -0.1028963521696965
000720 dd be 89 04 4e 58 b0 bf 9c 5c b3 29 0e 52 a7 3f
       -0.06384742365639391 0.045547907438668406
000730 14 28 b4 ff ec 3a 89 3f e8 9a 02 cc 03 0a bf 3f
       0.012319423249682195 0.12124656420437996
000740 73 bb a9 94 25 a4 cc bf 43 a0 74 21 84 cd b3 3f
       -0.22375936278282502 0.07735467736040484
000750 7f d4 ad a5 d4 26 b7 bf 39 24 8c 62 eb b5 93 3f
       -0.0904362587442211 0.019248655214173935
000760 84 d1 86 4f 1e 14 c7 3f 93 2f 70 5c 0e d1 8f bf
       0.1803014648736615 -0.015535461612692624
000770 ac fb df 65 3d 4e bf 3f 87 49 ca d2 61 f0 cb bf
       0.12228759514981274 -0.21827338020791506
000780 a1 63 21 a4 30 5d a7 bf b3 2c af df 64 27 c7 3f
       -0.04563285831017728 0.1808897106369379
000790 70 f9 5d fb 5b 8d cc 3f 40 d5 1a 8c 80 ce b8 bf
       0.2230639436128956 -0.09690097256210084
0007a0 0a 7f e5 3a 27 64 c4 bf 92 39 16 98 a0 a5 b0 3f
       -0.15930643440059838 0.06502727234894781
0007b0 70 96 f7 d7 db 73 ba bf 3c 3d a3 22 ae de 7d bf
       -0.10333036444316135 -0.007292442527798312
0007c0 04 d5 83 2e c6 71 9b 3f dc 46 9e 87 e3 02 a6 bf
       0.026801201428459556 -0.042990789704288906
0007d0 12 54 80 2e 13 b2 a3 bf a6 18 d2 06 51 95 73 bf
       -0.03846797888414967 -0.004781071195912789
0007e0 48 80 67 d0 07 31 93 3f 3b 6b ec 2d 1f de c6 bf
       0.018741724104870877 -0.17865361921652742
0007f0 b2 20 47 1b e0 d0 ba bf 5c f8 90 95 84 dd a1 bf
       -0.10474968591654735 -0.03489317250976917
